fqi/lunarlander/discrete_agent.pth (torch, 75386 bytes, 6 tensors)

fc1.weight f4 [128, 8]
000000 93 89 55 bf fd 18 50 bf 1f 1c 09 3f 23 1a b3 bd
       -0.83413047 -0.8128813 0.53558534 -0.087452196
000010 62 8f 0a 40 90 48 76 3f 2a 5d 4d 3d 84 10 8f 3e
       2.1650014 0.9620447 0.050137676 0.27942288
000020 d0 dd f1 bd 76 c5 76 3e d8 50 2d 3f 2a 31 78 be
       -0.118098855 0.24098763 0.6770148 -0.24237505
000030 02 f5 60 be 3d f4 37 bf 9c bd 61 bf c1 07 3a bf
       -0.21968463 -0.71857053 -0.88179946 -0.7266808
000040 3e e7 4c bf 60 94 b9 be fa 06 26 bf b7 93 3a bf
       -0.8004035 -0.36246014 -0.64854395 -0.72881645
000050 90 54 0c bf b4 72 76 3e 77 36 f6 3c f3 de a0 be
       -0.5481653 0.24067193 0.030055268 -0.31420097
000060 6c 36 9a 3e 99 02 16 be 90 40 cc 3f b3 42 1a 3f
       0.30119646 -0.14649428 1.5957203 0.60258025
000070 da c6 06 bf 92 fa b8 be 08 42 a7 3e 26 69 9c be
       -0.52647173 -0.3612867 0.32667565 -0.30548972
000080 83 44 eb be b5 50 05 bf da 76 e3 bd a7 aa 62 3f
       -0.45950708 -0.52076274 -0.111066535 0.88541645
000090 56 99 b3 be 24 c4 19 bf 94 3e cd 3e 31 ae 55 be
       -0.35077924 -0.6006491 0.40086806 -0.2086723
0000a0 ac 2a 04 bd 05 55 00 bf 76 10 74 be 69 00 4e bf
       -0.032267258 -0.5012973 -0.23834404 -0.80469376
0000b0 83 de 70 3f a4 02 24 3c 3f bf da 3d e1 f7 96 bc
       0.94089526 0.010010395 0.106810085 -0.018428745
0000c0 57 d8 a0 bd 7e 7d a0 bd 8b e7 a2 bf 73 09 7a 40
       -0.078537636 -0.07836436 -1.2726911 3.9068267
0000d0 3a 96 2b 3f cf 7a 11 be dd e7 95 3d 58 3f 44 3e
       0.670261 -0.14207004 0.07319615 0.19164789
0000e0 8f e7 93 3e d2 03 15 bf d3 4e 46 3f 32 4d 80 40
       0.28887603 -0.58208954 0.77464026 4.0094233
0000f0 cc a4 d1 be 54 52 1d 3f 4e bf 20 bd 2d c2 50 bd
       -0.40946043 0.6145375 -0.039244942 -0.05096643
000100 b6 0d a1 bf 7b 8e c1 be b0 51 33 3e b8 27 b5 be
       -1.2582309 -0.37804016 0.1751163 -0.35381866
000110 d7 85 8b 3f 63 dd bd 3d a5 b8 8b be 63 8f 92 ba
       1.090022 0.09270742 -0.2728931 -0.0011181649
000120 ad 43 5b be d0 3e 14 c0 9c 4a 80 bc a3 c1 48 bd
       -0.21412535 -2.3163338 -0.015660577 -0.04901279
000130 c2 93 9c bd d1 07 85 3e aa 2c 02 bf f1 5c 66 bd
       -0.0764537 0.25982526 -0.508494 -0.05624098
000140 3e df 20 be 25 9c ac bf ed 0e ec bf 56 2b 65 bf
       -0.1571016 -1.3485152 -1.8442055 -0.8951925
000150 69 92 12 40 ec 97 a9 be 82 15 fa be 13 31 86 3e
       2.2901862 -0.3312372 -0.48844534 0.26209316
000160 ee e1 c7 be e6 9b 16 3d 7a b8 00 3e 9d 0a 6e bb
       -0.39039558 0.03676977 0.12570372 -0.0036322244
000170 a4 0f 71 3f 5d c9 2b 3f fa 95 20 3f cc 8f 10 bf
       0.9416449 0.6710413 0.62728846 -0.56469417
000180 7e a3 4d be 88 e9 ec 3e 65 54 6d 3d 5d 4b c8 3e
       -0.20081899 0.4627192 0.057941813 0.39119998
000190 0d 14 ff 3e 33 ad 6a bf 74 06 48 bf e4 11 e4 3d
       0.49819985 -0.9167053 -0.78134847 0.11136225
0001a0 7e cc 94 be b1 b8 35 bd 3c d2 74 3d 3b a2 b4 3e
       -0.29062265 -0.04436559 0.059770808 0.35280022
0001b0 7f 5b 81 3f 2b 54 3e bf d6 4e b3 be f2 d2 80 bf
       1.0106047 -0.7434718 -0.35021085 -1.0064375
0001c0 48 9d f6 3e 28 d6 b9 be 18 79 36 3f 2c 60 2e bf
       0.4816687 -0.362962 0.71278524 -0.68115497
0001d0 4c c9 ab bf 20 33 f6 bd 21 1d 17 be ca 1c 24 be
       -1.3420806 -0.1202147 -0.14757206 -0.16026607
0001e0 a4 6d ae be d4 af 1d 3f 73 4b f4 3e 80 32 be 3e
       -0.34068024 0.6159642 0.47713813 0.37147903
0001f0 42 8c 48 3f 9d f8 66 3f a7 6e aa bb 5e 53 aa bf
       0.78339016 0.90223104 -0.005201179 -1.3306692
000200 dc e8 08 be cd 50 c9 bc 78 a6 8c bf cd dd 81 bf
       -0.13370079 -0.024574662 -1.0988302 -1.0145813
000210 36 2b e3 3d 08 6a 05 bc b9 74 80 3d 0e cf 51 bc
       0.11092226 -0.008142956 0.06272263 -0.012805713
000220 07 b9 3b 3c 44 3c 0b bc 25 9c df bf 3a 56 10 bf
       0.011457688 -0.008498255 -1.7469527 -0.5638157
000230 b6 8e 1f 3e 4b a7 5e bd f9 3b 94 3e 97 f8 1b 3e
       0.15581784 -0.05435876 0.28952006 0.15231548
000240 e3 e6 ea bd 89 78 24 3d a7 4c 60 3d cd 4a 60 bb
       -0.114698194 0.040154014 0.0547606 -0.0034224272
000250 ab 53 0a 40 9b 62 dc 3e 5f e0 39 be 33 28 fc be
       2.1613567 0.4304398 -0.18151997 -0.4924942
000260 0b 4e 0e bf c9 29 b8 c0 14 70 4f bf 48 eb f9 3e
       -0.55587834 -5.7551007 -0.8103039 0.48812318
000270 1d 2f 8a bd 56 3f 5e bd be ed a0 3e 93 55 b3 3e
       -0.067472674 -0.05425962 0.31431383 0.35026225
000280 85 b2 95 be 2a 67 ec be 12 88 21 3f 1d b4 ab 3d
       -0.29237762 -0.46172458 0.6309825 0.08383963
000290 7c 81 b6 be 63 b7 09 bf 7e 8b f2 3c 19 e4 57 3e
       -0.35645664 -0.5379545 0.02960753 0.21083106
0002a0 06 a1 84 bf 5b 3c 06 3e 76 16 ed be 33 7c 2f 3e
       -1.036164 0.13108961 -0.463062 0.17137222
0002b0 96 ef b1 3f 8f 55 23 3f c0 a0 05 bf 5d c0 3a 3f
       1.3901241 0.6380243 -0.5219841 0.72949773
0002c0 84 4e 3a be 31 dc 4e be 73 59 3e 3f c3 0d d6 3e
       -0.18194014 -0.20201184 0.7435524 0.41807374
0002d0 91 9f d4 bc 42 a1 01 3e f4 02 00 3e 54 b6 90 3f
       -0.025954993 0.12659171 0.12501127 1.1305642
0002e0 73 93 33 bf 2a 09 fe 3e 3a 24 99 be ef d5 f1 be
       -0.70146865 0.49616367 -0.2991045 -0.4723353
0002f0 83 39 03 3f 69 08 83 3e f6 fd 13 bf b7 e6 77 bd
       0.5125963 0.25592354 -0.5780939 -0.06052276
000300 11 08 90 3e c3 7a 42 bf 8d 57 be 3e cd c9 9c bf
       0.28131154 -0.7596857 0.3717617 -1.2249085
000310 9c 5b 23 be 7c e6 95 3e b1 e2 0a bf 91 5b bf be
       -0.15952915 0.29277408 -0.54252154 -0.37374547
000320 a3 c5 05 40 4f 9e bf bf ff 1f 19 be 67 f2 ed be
       2.0901878 -1.4970187 -0.14953612 -0.46474
000330 ed d4 6e bf 04 b0 a6 be 19 75 88 3e 80 a3 8b 3e
       -0.9329365 -0.32556164 0.26651838 0.27273178
000340 82 23 ad bc 58 17 b0 bf 23 3d 35 c0 5d 1e a1 bf
       -0.021135096 -1.3757124 -2.8318565 -1.2587391
000350 35 fc 1b 3d ba 7a b4 bc fc c6 70 3d 8b 35 00 be
       0.03808232 -0.022031177 0.058783516 -0.12520425
000360 68 b6 10 c0 2b 62 f1 bd 1f b1 12 bf e1 b6 e8 be
       -2.2611332 -0.11786302 -0.57301515 -0.45452026
000370 a3 9c 24 3e c2 0d df bc c6 6b 80 bd 0a af e4 3d
       0.16075377 -0.02722824 -0.06270556 0.111661986
000380 20 b3 82 3e bd 19 ef bd ee c5 b3 3e 2f 63 da 3e
       0.25527287 -0.11674831 0.35111946 0.42653796
000390 13 be 18 3e 10 ac 34 3e 40 61 fc 3e 4d 65 75 be
       0.14916258 0.17643762 0.49292946 -0.23964424
0003a0 91 dc 03 bf 10 26 aa be 86 5a 58 bf b3 e7 92 be
       -0.5150843 -0.33232164 -0.8451313 -0.28692397
0003b0 19 0c 94 3f 0e f8 df be f2 2c f7 3c 6b 84 5a 3d
       1.1566192 -0.43743938 0.030172799 0.05334894
0003c0 5b ab 31 bc 02 0f 2d bd be b8 1c be 1b 7a 8a bf
       -0.010844077 -0.04225064 -0.15304849 -1.0818514
0003d0 be 4d 6f b9 42 d1 69 3d c6 14 b1 3c bf 64 7f be
       -0.00022821777 0.05708433 0.02161635 -0.24940775
0003e0 d2 c0 0a 40 03 e6 35 3e 9a d8 63 3f ba 73 4f be
       2.1680188 0.17763524 0.8900238 -0.2025899
0003f0 7e 63 e0 bd c7 af 81 3e 1a 01 01 3e 6f 57 e6 be
       -0.10956477 0.2532942 0.12598076 -0.44988582

fc1.bias f4 [128]
000000 bb c1 b9 be 7b 3e ec be 60 e6 39 3c 96 03 1d 3b
       -0.36280617 -0.4614142 0.01134643 0.0023958436
000010 3a a2 82 bf b9 a1 02 3f 22 ee 3d 3e 6f 88 e4 bc
       -1.0205758 0.5102802 0.18547872 -0.027897088
000020 50 a6 59 3e 3c ea 94 3e a4 da 85 3d f2 e4 ec bd
       0.2125485 0.29084957 0.06535843 -0.11567105
000030 bf 59 68 be c6 8d 41 3e 27 57 ab 3e f1 e9 89 3e
       -0.22690485 0.18901739 0.3346493 0.26936296
000040 6c d1 a0 39 d0 5f 8d 3c 6d 2e 20 be 6d 11 0b bb
       0.0003067361 0.017257601 -0.1564271 -0.0021220103
000050 59 47 f8 3e 88 0a 72 be 0f 81 ce be b7 41 67 be
       0.48491934 -0.2363683 -0.4033284 -0.22583662
000060 4c a8 a6 bd e5 9a 01 bf 39 b4 2a 3d 0b 5c 89 bd
       -0.08137569 -0.50626975 0.04167578 -0.06707009
000070 65 a9 7d 3e d9 d0 8e 3e b7 d5 44 3b d2 a1 6c be
       0.2477165 0.27893713 0.003003461 -0.23108605
000080 2b 48 02 be 85 55 33 be a2 06 34 bf 8c 5e aa 3e
       -0.12722842 -0.17513092 -0.7032262 0.3327526
000090 5a ec 03 3f 7a 25 f6 bd fb f9 dc 3d 20 6e 00 3e
       0.5153252 -0.12018867 0.107898675 0.1254201
0000a0 d5 1e 8a be 47 e6 f2 be 01 b5 98 3d 07 87 61 3e
       -0.26976648 -0.47441313 0.07456399 0.22024165
0000b0 e6 74 8c be db ff ff be 8a 61 6c bf f7 4a 89 3e
       -0.27432936 -0.4999989 -0.9233633 0.26815006
0000c0 bc 79 be bc a1 ef 5e be 1c 86 0c 3f ef c2 92 3c
       -0.023251407 -0.21771099 0.54892135 0.017915217
0000d0 d7 75 0b be f2 c1 38 3e ff dd ba 3d 4f ab cf 3e
       -0.13619171 0.18042734 0.09124374 0.40560386
0000e0 37 16 84 3d a7 82 d8 3e 0e 5b 65 be 3e 31 ec 3d
       0.0644955 0.4228718 -0.22398016 0.1153283
0000f0 0b 6c 1b 3c 08 7c f6 bd 61 92 fc be 96 24 dc be
       0.009486209 -0.12035376 -0.49330428 -0.42996663
000100 a7 54 b8 3c 93 42 47 3e f8 6f 8e be bc c1 45 be
       0.022501303 0.1945899 -0.278198 -0.19312185
000110 fd 7d 05 3f 31 10 34 bd 9d 91 74 3a aa b6 8c be
       0.5214537 -0.043960754 0.00093295594 -0.27483112
000120 76 1c 6f 3e 92 16 4d bf 8a e6 4d bf f8 89 2f bd
       0.233507 -0.80112565 -0.804299 -0.042856187
000130 f6 cb 9d 3e 2b 3a 18 bf 42 3f b5 3e 1d 19 97 be
       0.30819672 -0.5946376 0.35399824 -0.29511347
000140 a5 57 21 bf 89 1e dc ba 3f ea 78 3c 42 e4 27 bf
       -0.6302436 -0.0016793768 0.015192567 -0.6558267
000150 67 90 20 bf 8b a9 4a bf fb a0 3c 3d da 2a 24 be
       -0.6272034 -0.7916495 0.04605196 -0.16031972
000160 68 f3 1d 3d bf ac de 3d 24 d8 fc be b4 1d 1d bf
       0.03856221 0.108727925 -0.49383652 -0.6137345
000170 bf b6 ff 3e 46 b0 28 3b ee 90 0a 3e 05 d8 a1 be
       0.49944112 0.0025739833 0.13531849 -0.31610122
000180 c1 11 a7 bd 1f a8 9c 3e ba b7 e3 3e c3 7e 69 bd
       -0.08157683 0.30597016 0.4447611 -0.057005655
000190 11 23 ed 3e 3b bf 08 bf 63 f0 d5 bd 09 c5 74 bf
       0.46315816 -0.53416795 -0.10446241 -0.9561315
0001a0 aa fe 33 3f bb 97 02 be fc 25 4e 3e a3 6f 34 be
       0.7031046 -0.12753193 0.20131677 -0.17620711
0001b0 e2 54 f5 be 88 11 48 bd 23 8d 5d 3d 53 91 28 3e
       -0.47916323 -0.048844844 0.054089677 0.16461687
0001c0 29 2d 68 3e 5f c1 62 be 9b 57 e8 bd 85 18 24 bc
       0.22673477 -0.22144078 -0.113448344 -0.010015612
0001d0 cf c5 12 bf 91 b4 d0 3e 6d 06 fe be 98 1f f2 3d
       -0.5733308 0.4076276 -0.49614277 0.11822432
0001e0 2e a7 0e be 78 27 0e 3c 0b 8e 89 be e9 e2 f5 3e
       -0.13930961 0.008676402 -0.26866183 0.4802468
0001f0 6f a2 a9 be d5 f9 1a be f8 4c e7 be cb aa 3e 3e
       -0.3313174 -0.15134366 -0.4517591 0.1861984

fc2.weight f4 [128, 128]
000000 2f 31 40 3c a1 b3 32 bd 6c d0 cd bb 20 1a c7 ba
       0.011730476 -0.04362834 -0.0062809493 -0.0015190281
000010 a5 80 8e bd 5c 8d 68 bd 7c 3b c7 bd c7 68 9d bd
       -0.06958131 -0.056775436 -0.097281426 -0.07686
000020 a5 e8 9c bb 96 93 56 bd 76 1a ca bd 18 50 58 bd
       -0.0047884756 -0.052386843 -0.09868328 -0.05281076
000030 75 af 95 bd fb 41 19 3c ce d6 a9 3c f2 d6 06 3c
       -0.073088564 0.00935411 0.02073231 0.008229958
000040 91 c6 e6 3a 39 db 46 bd 53 3d 81 bc c1 80 6d 3c
       0.0017606785 -0.04854891 -0.015776312 0.014496029
000050 92 35 86 bd 6d 16 99 3d 54 8f 6a 3b d9 de 11 3d
       -0.065531865 0.074749805 0.0035790997 0.035612915
000060 92 7e cf bd 67 0d 40 3d 33 20 06 3c 8b 90 3c bd
       -0.10131563 0.04688778 0.008186388 -0.046036284
000070 7e 2b 39 bd b7 b9 82 bd de 01 23 3c 30 41 9b bb
       -0.045207493 -0.063830785 0.009949176 -0.0047379956
000080 de 81 84 bd 3a 0b 75 bc e5 07 a0 3d f0 ac 93 bc
       -0.06470083 -0.01495629 0.07814006 -0.018026799
000090 2c 26 35 3d 34 c7 37 3d 2a 82 f9 bd e1 f4 97 bd
       0.044225857 0.04486771 -0.1218303 -0.07419754
0000a0 a7 df 98 3c 39 25 59 3d 87 48 06 3c 2d 43 c6 3b
       0.018661333 0.053014014 0.008196003 0.0060504884
0000b0 64 c9 9e 3d 10 1f 25 3d 57 84 5a bd fe 89 95 bd
       0.07753256 0.040312827 -0.053348865 -0.073017105
0000c0 c6 60 02 3c 0c 0f 99 3c 6a a9 79 bd 05 4a 95 3d
       0.007957643 0.018683933 -0.06095258 0.07289509
0000d0 71 76 7f 3a b2 4b d5 bd 9e e5 04 bd e9 31 3e bd
       0.0009745127 -0.10414828 -0.032445543 -0.046434317
0000e0 62 3f 88 3c 1e cd 49 bd f4 e4 a8 bc 82 a4 89 bd
       0.016631786 -0.04926788 -0.020616986 -0.067208305
0000f0 2c 1b 50 bd 17 b5 90 37 0e 25 9c bd fd 12 90 bd
       -0.050807163 1.7250464e-05 -0.07624255 -0.07034872
000100 cf ce f4 bd 98 74 6f bd 0b 0b f0 3c 06 bd 72 bd
       -0.11953508 -0.0584608 0.02930214 -0.059262298
000110 2c 91 d6 bc 7a 34 82 3d f4 66 7e b6 d6 c4 97 bd
       -0.02619227 0.06357665 -3.7908876e-06 -0.0741059
000120 10 8e 6e bd c1 53 83 3d f2 66 83 bc 65 24 9d bd
       -0.05824095 0.06412459 -0.0160403 -0.07672957
000130 3d b9 bf bd 9f 47 1d 3d 7d 65 c9 bd 61 83 4d bd
       -0.09361503 0.03839838 -0.098338105 -0.05017412
000140 8c 4a 2e 3c 69 78 a4 bd 8c a4 fb bd ac ec c2 bc
       0.010637891 -0.08030779 -0.12287244 -0.023794495
000150 e5 f3 ec bc 90 c2 aa bb 06 ba 8a bd 32 93 27 bd
       -0.028924892 -0.005211182 -0.067737624 -0.04091186
000160 a7 6d 2c 3d 17 af 2a 3d 6a 91 d9 bd 23 2f f9 bd
       0.04209676 0.041670885 -0.10623439 -0.12167194
000170 d0 aa e7 3a e1 a8 8e bc 6d ca 42 bd cb 38 29 3a
       0.0017674807 -0.017414512 -0.04755633 0.0006455301
000180 50 b3 26 bd b6 38 0e bd 5d 88 cb 39 2f 4a ba bb
       -0.04069835 -0.034722053 0.00038820776 -0.005685113
000190 9c e2 7a 3d f0 a9 d2 bd d5 72 38 3d c6 76 da bd
       0.061251268 -0.10286319 0.045031387 -0.106671855
0001a0 bf 14 7e 3d 41 27 31 bc f8 69 1e bd 6c 44 15 bd
       0.062031504 -0.0108125815 -0.03867528 -0.036442205
0001b0 05 82 23 bd 3c 7c 03 be 50 76 d4 bd e9 57 b1 bd
       -0.03991892 -0.1284036 -0.10374129 -0.08659346
0001c0 8e 3d 9b bd 42 52 2e 3d 75 86 86 bd 2f 6c de bc
       -0.075801 0.042558916 -0.065686144 -0.027151195
0001d0 0f 10 53 3d b9 97 e2 bc b6 32 dc bd 6c 7e 97 bc
       0.051528987 -0.027660238 -0.1075186 -0.0184929
0001e0 45 7a 50 bd 06 71 f7 3b 5c bc a9 3c a3 96 a8 bd
       -0.050897855 0.0075513152 0.0207197 -0.08231857
0001f0 96 49 08 3d 24 f3 08 bc a8 b6 ff bc 44 28 b4 bd
       0.033273302 -0.0083587505 -0.031215027 -0.087967426
000200 37 6f 8f 3e de 95 1e be 8e 01 2d be a5 f5 cc bd
       0.28014538 -0.15486857 -0.16895124 -0.100077905
000210 7a 09 ae 3f 8b 25 5f 3e e2 83 b7 3d 4e 9e 55 3e
       1.3596642 0.21791665 0.089607015 0.2086117
000220 b1 8b b5 3e 3d cf 87 be 22 2e c9 3e f5 af 95 3e
       0.3545814 -0.26525298 0.3929301 0.29235807
000230 7b 60 13 3d 1c 53 8a 3d 26 ec 53 bd 9d 04 a9 be
       0.035980683 0.06754133 -0.05173888 -0.33011332
000240 e7 30 8c bb c9 c6 0e 3d 13 d7 97 bf 94 c3 07 bd
       -0.0042782906 0.034857545 -1.186251 -0.033145502
000250 be ed 11 bd 63 95 bd bd 0e c1 87 3e 49 cb 79 be
       -0.03562712 -0.09257009 0.26514477 -0.24393953
000260 70 d0 bf 3d 4d d5 33 3f 00 d8 ba 3e 93 68 33 3f
       0.09365928 0.70247346 0.3649292 0.7008144
000270 2c fa 63 be c7 d0 84 3d 6a 7d d0 3d bd 5b dd 3e
       -0.22263402 0.064851336 0.10180171 0.43234053
000280 2f f3 25 3f 23 89 f8 be be a9 81 3f e5 fe c0 bd
       0.64824194 -0.48542127 1.0129926 -0.09423617
000290 d8 75 b0 bd 4b 1c 13 3f 46 ea dc bd 23 59 66 bd
       -0.08616227 0.57465047 -0.107868716 -0.05623735
0002a0 cc d4 61 3f 16 58 88 3f 5b 37 e2 3d 30 1a a3 be
       0.8821533 1.0651882 0.110457145 -0.31855917
0002b0 08 df fc be 54 78 40 be ed 9e 79 3f 0a 23 3e bd
       -0.4938891 -0.18795902 0.97508126 -0.046420135
0002c0 4d 29 74 3e 71 a1 ab bd e7 3d 58 bd 61 20 6c bf
       0.2384388 -0.08380402 -0.05279341 -0.92236906
0002d0 62 90 87 3e 37 3c 6e be 62 0b e7 3e 55 07 e3 3d
       0.26477343 -0.23265158 0.45125872 0.11085383
0002e0 14 89 4d bd c9 87 62 3e 9b c3 10 bf 23 78 25 bf
       -0.050179556 0.2212211 -0.5654847 -0.6463644
0002f0 d3 45 6a 3d 2b 7f 5a 3e df ba b2 3d 7a 22 85 3f
       0.057195496 0.21337573 0.08727049 1.0401146
000300 49 bf 3b 3e a4 97 16 3e 39 40 bd 3d 1c c0 8f bf
       0.18334688 0.14706284 0.09240765 -1.1230502
000310 5a 98 6b 3e 4d 76 8d bd c3 42 46 3f 79 b8 75 3f
       0.23007336 -0.0690733 0.7744562 0.9598461
000320 7d fe b4 be 62 6e 5f 3f 5b c9 a3 3f 50 33 67 be
       -0.3535041 0.87277806 1.2795824 -0.22578168
000330 0d ab 6c be 25 8f 8b be 4a 78 43 3e d6 10 d1 be
       -0.23112126 -0.27257648 0.19088855 -0.40833157
000340 e1 46 a1 3e 30 bf d9 3e e7 75 1a bf 68 a4 76 3f
       0.3149939 0.42528677 -0.60336155 0.96344614
000350 7a 24 3c be 5a e7 87 3f a1 29 d2 3d 0a dd e2 3e
       -0.1837329 1.0617478 0.10261846 0.44309264
000360 29 fc 47 be 6f c8 a4 3e e5 8a 0c 3d e3 0e 18 3f
       -0.19529785 0.3218417 0.034312148 0.59397715
000370 52 03 e5 be 60 59 56 c0 8a 7f 32 bd 75 ce b9 3e
       -0.44729096 -3.349205 -0.043578662 0.36290327
000380 0f e5 c8 3c a2 40 14 be e2 85 7d be f7 c6 b9 3d
       0.024523286 -0.1447778 -0.24758103 0.09071153
000390 4f 1c c9 bd b6 d1 72 3f 51 43 cf be b1 0a 7d 3f
       -0.098198526 0.94851243 -0.40481046 0.9884444
0003a0 09 df 20 3d 3b 13 72 3e 4d ee c0 be 51 89 9b 3e
       0.039275203 0.23640148 -0.3768181 0.30378202
0003b0 cc 98 e5 3e b2 50 83 3e 9e ab e0 bd 1f 08 e1 bb
       0.44843137 0.25647503 -0.109702334 -0.006867423
0003c0 ea 7c 98 bc 73 f8 3f 3e bf c5 df 3c 84 e9 19 bf
       -0.018614251 0.1874712 0.027315972 -0.6012194
0003d0 2f bd 21 3f 9b 6f 34 3e 27 c8 c1 3f 55 5f 96 be
       0.63179296 0.17620699 1.5139207 -0.29369608
0003e0 54 12 51 be ff 0a 15 3c 3f 82 82 bd e9 3e 83 be
       -0.20417148 0.00909686 -0.06372499 -0.25633934
0003f0 03 17 20 3f b7 4d 81 3e 57 ad d4 be bd b6 43 bf
       0.62535113 0.25254604 -0.41538498 -0.7645071

fc2.bias f4 [128]
000000 90 ae 8f bd 87 d3 fa bb da 12 51 bd 10 28 78 3d
       -0.07015717 -0.0076546106 -0.05104337 0.06058508
000010 b9 f7 84 bd 04 70 2b 3d ab 6a 5d 3e 25 b5 12 3e
       -0.06492562 0.041854873 0.21622722 0.14326914
000020 38 ff 58 3e 98 ce cb bd b3 22 d8 bd d3 2a 9b bd
       0.21191108 -0.09951514 -0.10553493 -0.075765274
000030 56 39 9d bc 71 a3 47 3d 64 b1 7b be 67 0d 8b be
       -0.019192379 0.048739854 -0.24579388 -0.27158663
000040 a3 a1 51 3c db de 8c 3b a9 b2 0a 3d 31 61 40 3e
       0.012794885 0.0042990274 0.03386179 0.18787076
000050 84 99 df 3e 90 9f fe 3c f8 83 db 3e 8f d0 19 bf
       0.4367181 0.031081945 0.42874122 -0.6008386
000060 c2 a9 1a bd ca 97 5f bd 17 fd e2 bd 05 9d 00 bf
       -0.03775955 -0.054588117 -0.11083429 -0.5023959
000070 5e 68 3f 3d 34 62 26 be 8c c9 10 bd ad 62 68 3d
       0.04673039 -0.16248399 -0.03534846 0.05673473
000080 65 05 c0 3d 31 88 8e 3c cd a7 ad 3e bc c2 20 bd
       0.09376029 0.017398925 0.33917084 -0.039248213
000090 1a 50 81 3e e2 2e 0b bf 38 ce c7 3e 0d ab d8 be
       0.25256425 -0.5436841 0.3902452 -0.42318
0000a0 16 9c e0 bd 69 ee 49 3e ea 7b 0e bd 41 41 53 3c
       -0.10967271 0.19719853 -0.034786142 0.012893976
0000b0 6d c6 59 3e dc 72 fa 3e 44 6e 9a bd 7b f8 96 bd
       0.212671 0.48915756 -0.07540563 -0.07371613
0000c0 56 b4 f5 be 03 4e f5 bb 42 66 36 bd 33 69 01 bf
       -0.47989148 -0.0074861064 -0.044531114 -0.50551146
0000d0 4e f1 62 3d 92 af c3 bd b4 48 fd bc 56 a8 01 3f
       0.055405907 -0.09554972 -0.030918457 0.50647485
0000e0 6a b8 fc 3e a9 da 17 3e 05 9d 1c 3e d1 c8 47 bd
       0.49359447 0.14829506 0.15294273 -0.048775498
0000f0 27 2e 38 3e 6b 04 d4 be d5 01 24 bd f8 ff 3c bf
       0.17986356 -0.4140962 -0.04004081 -0.7382808
000100 be 1c d3 3e 91 20 f7 bd 4a 3d 11 3d dd d6 2a bd
       0.41232866 -0.120667584 0.03545884 -0.041708816
000110 79 bd 8a 3d 2a f7 0a 3f 5b 9f 1e bc 43 fa f8 bb
       0.0677442 0.5428339 -0.009681548 -0.007598193
000120 9c f9 7d 3d 2b 3c a0 bd 38 88 14 be 3d d3 44 3c
       0.062005624 -0.07823976 -0.14505088 0.012013254
000130 3d 23 66 bd c5 9d fb 3e 21 1a 1e bf 16 32 fc 3b
       -0.05618595 0.49143806 -0.6175862 0.0076964004
000140 0e 09 1e 3e 09 ee 24 be 22 6e 02 3e f9 00 ab 3d
       0.15433142 -0.16106428 0.12737325 0.08349795
000150 cc 00 9b 3c 7e 1e ce ba ee c2 4f 3d c3 61 fe bc
       0.018921278 -0.001572564 0.05072301 -0.031052476
000160 59 84 ae bd 7b 58 8c bd ba 08 bc bd 2a 8f 43 3e
       -0.08521337 -0.06852814 -0.09181352 0.19097582
000170 02 fe b6 3d 2a 62 b4 be 70 30 2f bf 33 0c 3d be
       0.08935167 -0.35231143 -0.68433285 -0.18461685
000180 36 f4 bd bc 34 81 9c 3e 59 f2 b0 bd 81 a3 fc 3e
       -0.023187738 0.30567324 -0.08639974 0.49343494
000190 76 77 88 3e 98 c1 ee 3d 4c c9 91 3e ac 44 d5 bd
       0.2665364 0.11658019 0.2847389 -0.10413489
0001a0 b9 75 4b bd f3 16 15 be 42 c4 9e bc 3d cb 3c 3e
       -0.049672816 -0.14559536 -0.019380692 0.18436904
0001b0 e6 38 9c bc 12 23 dd bd c8 ef e9 be cc 28 bd be
       -0.0190701 -0.10797705 -0.4569075 -0.36945188
0001c0 c1 01 d1 3e 54 f1 0e 3d e8 55 2c 3e 10 b7 b2 be
       0.4082165 0.034898117 0.16829646 -0.3490529
0001d0 9a b7 d1 3e 60 80 7f bd 19 d5 fe be 0d 3f ea bc
       0.4096039 -0.062378287 -0.49771956 -0.028594518
0001e0 f8 c8 04 bd 95 fa d8 3c 13 72 7f bd 55 57 98 bd
       -0.03241822 0.026486674 -0.06236465 -0.07438532
0001f0 a9 c2 e5 be 57 bf 45 bd e1 32 b0 3e 19 38 d1 3e
       -0.44875076 -0.04827818 0.34413818 0.40863112

fc3.weight f4 [4, 128]
000000 26 f1 df 3c 62 5d f7 be 53 77 50 3b 13 c4 59 3e
       0.027336668 -0.48313433 0.0031809404 0.21266203
000010 bc a8 7f be ca 2c 73 3f 2c 2b 7c 3f 54 5a 69 3c
       -0.24966711 0.9499022 0.98503375 0.014242727
000020 70 c9 a9 bb 4f 3e d8 bd 7f 0f a2 3d 1a a5 90 be
       -0.005181484 -0.105587594 0.07913112 -0.28250962
000030 a0 0d 9c bd 86 b7 58 3d 67 ec 04 bf 35 e9 29 bf
       -0.07619786 0.052909397 -0.5192322 -0.6637147
000040 24 a0 ac 3b 6c fe 00 3d 15 e3 59 bf 9c 8c 08 be
       0.0052681137 0.031492636 -0.85112125 -0.13334888
000050 2a 24 b8 3f 15 50 3e 3c 55 1d a6 bf 5b 11 93 be
       1.4386036 0.011615773 -1.2977701 -0.2872418
000060 6d 19 13 bf 98 9e 78 3d 73 f2 39 bf 11 1f d2 be
       -0.5746067 0.06069812 -0.72635573 -0.41039327
000070 d2 e3 a2 bf dd b9 24 be c7 6e 42 bf c4 e1 4f bf
       -1.2725775 -0.16086526 -0.7595028 -0.81203866
000080 ef 3a 92 3e 6f 9c 32 bc be 63 0b 3f 7d 06 57 3d
       0.28560588 -0.0109015545 0.5444907 0.052496422
000090 5d a4 38 bf 72 a1 b4 bf 9a 01 df 3f 58 be 93 bf
       -0.721258 -1.4111769 1.7422364 -1.1542463
0000a0 4d e2 5e 3d d3 62 da bf f6 21 22 bc 88 d8 65 3d
       0.054415036 -1.7061409 -0.009895792 0.056114703
0000b0 1e c7 81 3f 90 ba 8c bf 32 b5 80 3e 0f 42 88 3f
       1.0138891 -1.0994434 0.2513824 1.064516
0000c0 82 77 9b bf 1d 89 b5 bd be c4 86 bc 4d 91 96 3f
       -1.2145846 -0.08864043 -0.016451236 1.1763092
0000d0 c3 39 2c be 69 21 a4 3c a6 fe 89 be 89 73 ef 3e
       -0.1681891 0.020035462 -0.26952094 0.46767834
0000e0 d0 eb 7e 3f 98 ce 35 3f e1 be 57 be db fa e5 3c
       0.9957857 0.7101836 -0.21068908 0.028073719
0000f0 00 c7 66 bf a4 f0 a3 be 71 b1 ac be 9f 3c c6 bf
       -0.901474 -0.32019532 -0.33729127 -1.548725
000100 5a dd 85 3f 8e a6 93 3d fd 80 5e 3f df ac 18 be
       1.0458176 0.07209502 0.8691557 -0.14909695
000110 9e 88 68 3f 74 30 8a 3f eb 96 69 3f b1 14 9a bf
       0.9083346 1.0796037 0.9124591 -1.2037565
000120 74 bc 70 be 51 29 51 bf 2c 75 b6 3f 7e 34 64 bf
       -0.23509389 -0.8170367 1.4254508 -0.89142597
000130 b7 da 8c bc 53 b0 8e 3f 96 b1 53 bf 3f 63 bc bc
       -0.017194135 1.114756 -0.8269285 -0.022996543
000140 90 a0 71 3f dc 67 87 bb 21 2f cb 3f 6d f5 81 3e
       0.94385624 -0.004132254 1.5873758 0.25382558
000150 f4 6a 94 be 1d 90 e8 bc 79 21 83 bf 70 c8 c9 3e
       -0.2898785 -0.028389031 -1.024459 0.39410734
000160 0b 82 06 be 79 f3 48 be 52 3d f6 bd a2 3e 67 3f
       -0.13135545 -0.19624127 -0.12023415 0.90329945
000170 9b 0f b4 be f0 64 8c be 57 c7 58 bf c1 8c 47 be
       -0.35168156 -0.2742076 -0.8467917 -0.19487287
000180 50 8a 03 bd f5 71 13 bf 9e 37 fd 3d 99 81 12 3f
       -0.032114327 -0.5759576 0.12364124 0.57229
000190 05 c8 8b 3f 79 1b 4f be 31 cc 4f 3f 01 51 ae be
       1.0920416 -0.20225324 0.81170946 -0.34046176
0001a0 44 15 8d be da 17 e0 bd a8 9c e3 bc 80 26 52 bf
       -0.27555287 -0.10942049 -0.02778466 -0.82089996
0001b0 f6 a0 dc 3c f4 72 68 bf ce de af bf 16 11 b8 bf
       0.02693222 -0.90800405 -1.373987 -1.4380214
0001c0 2c 84 99 3f 30 c0 ae be 8d 7a 78 bf e0 dd 72 be
       1.1993461 -0.34131002 -0.97062 -0.23717451
0001d0 b9 95 17 bf 5d 7a 63 3f 63 e3 df be de 0b c3 bb
       -0.59212834 0.88858587 -0.4372817 -0.0059523424
0001e0 36 8d bf bc 4a ef 7d bf e2 34 09 3d 0f 60 0a bd
       -0.023382764 -0.9919325 0.0334977 -0.033783015
0001f0 b9 f3 10 bf 0c 1d fa bc 23 c4 9f 3f 02 49 28 bf
       -0.5662189 -0.030531429 1.2481731 -0.657364
000200 1d f2 42 3d b4 67 e3 be 16 55 86 bd c8 5f 99 bc
       0.04759418 -0.44415057 -0.065591976 -0.01872243
000210 82 a1 a1 be 91 41 96 3f 8c 71 8c 3f 33 9d 5c 3e
       -0.31568533 1.1738759 1.0972152 0.21544342
000220 b4 51 d6 3c 07 18 43 3c ef 17 1a bc eb 26 94 be
       0.026162006 0.011907584 -0.00940512 -0.28935942
000230 6f e5 70 bc 83 53 48 3d 09 ef a1 be a6 17 08 bf
       -0.014703139 0.048907768 -0.31627682 -0.53161085
000240 1d 7c b0 bb f4 75 da 3c 8e 34 c1 be d6 00 e7 3e
       -0.005385889 0.026667573 -0.3773541 0.45117825
000250 fe 75 8d 3f 31 2f 8d bd 82 49 af bf 9f 10 35 bf
       1.1051633 -0.06893767 -1.3694308 -0.70728487
000260 8d d5 b3 be c3 06 64 3d b7 0a 12 bf ba 62 4a be
       -0.35123864 0.05567051 -0.570476 -0.19764224
000270 b9 37 86 bf f4 7b f1 be b2 da 98 bf a0 5f 1c bf
       -1.0485755 -0.4716488 -1.194174 -0.6108341
000280 9d 26 07 3d d5 bd 18 3d d5 84 84 3e 79 3e 0c bd
       0.03299581 0.037290413 0.25882593 -0.034239266
000290 00 0f 0a bf b3 86 90 bf 82 84 e1 3f 5a cf a5 bf
       -0.5392914 -1.1291107 1.7618563 -1.2953904
0002a0 1c cc 67 3c 94 c7 9a bf 21 d9 2e bc 18 23 c4 bb
       0.014147785 -1.2092156 -0.010671885 -0.005985629
0002b0 d5 a8 95 3f 55 6b 5c bf e7 c1 74 bd ab 9b 84 3f
       1.1692148 -0.86101276 -0.059755232 1.0360006
0002c0 ac f8 8f bf f5 bd ad 3d f6 15 fb 3c 02 4b 82 3f
       -1.1247764 0.08483497 0.03065012 1.017914
0002d0 95 ea 2a bf 95 7a 72 3d ca 49 4f be 8b 71 f4 3e
       -0.66764194 0.059198935 -0.20242992 0.47742876
0002e0 f9 98 7b 3f 6a c0 38 3f 47 42 8f bd 04 99 95 3b
       0.9828029 0.721686 -0.06995063 0.00456536
0002f0 44 5e 48 bf a7 1a 02 bf 76 2a ad be 84 e6 dd bf
       -0.7826884 -0.5082192 -0.33821458 -1.7335973
000300 6f d2 87 3f 21 8c a7 3c a8 be 8c be ce ab e0 bd
       1.0611094 0.02045256 -0.2748921 -0.10970269
000310 78 e3 70 3f 0b fb 75 3f 8f 1f 58 3f 7f af 29 bf
       0.9409709 0.96086186 0.84423155 -0.6628341
000320 1a ad 5c be 9c 51 4f bf b6 e2 b4 3f ec f4 2e bf
       -0.21550408 -0.809839 1.4131687 -0.6834247
000330 da 80 53 bd ef 54 96 3f 05 e5 f8 3e 65 e7 00 bd
       -0.051636554 1.174467 0.48612228 -0.031470675
000340 87 4c 54 3f 5f ae df bd a2 b9 9f 3f 94 25 ad 3d
       0.8292927 -0.109219305 1.2478526 0.08454433
000350 a6 4e a3 be 72 7b a9 3b b2 66 a9 be d6 7c ee 3e
       -0.31895941 0.0051721865 -0.33086163 0.46579617
000360 6e 2b 67 be 93 49 68 bd 3c 77 93 be 6a c2 17 3f
       -0.22575161 -0.05671079 -0.28801906 0.5928103
000370 08 38 ae be da 56 ab bd 85 46 a2 bf 1a e0 79 be
       -0.34027123 -0.08366175 -1.2677771 -0.24401894
000380 77 f4 a5 bd e3 9c ff be 39 ee d4 bb 04 19 1c 3f
       -0.081032686 -0.49924383 -0.006498125 0.6097567
000390 70 42 a5 3f a5 f0 40 bf 10 a0 1b 3f 38 fa 48 be
       1.29109 -0.75367194 0.6079111 -0.19626701
0003a0 20 a6 e5 be 1f 9d 0a 3c 68 ba 20 bd 67 63 42 be
       -0.44853306 0.008460312 -0.03924027 -0.18983231
0003b0 24 51 e6 bd 88 12 3c be 3e 6d 72 bf c1 b4 ae bf
       -0.11245945 -0.18366444 -0.9469794 -1.3648912
0003c0 9c 60 8e 3f 70 38 23 bf a0 06 77 bf ed 24 47 be
       1.1123233 -0.6375799 -0.96494484 -0.1944768
0003d0 ef 50 42 bf 69 fb c5 be e2 61 9b bf f8 a9 23 3d
       -0.75904745 -0.38668373 -1.2139246 0.039957017
0003e0 da 3c 10 3c 71 40 81 bf 02 95 3b 3d ac 6e 24 3d
       0.008803571 -1.0097791 0.0457964 0.040144607
0003f0 de e8 27 bf 32 f2 21 3d 8f 5a a8 3f 38 4d f4 be
       -0.655897 0.039537616 1.3152636 -0.47715163

fc3.bias f4 [4]
000000 25 f1 33 3f 27 0c 18 3f aa 4e 62 3b 10 9e b3 3e
       0.7028983 0.59393543 0.003453175 0.3508153
